# 去掉 P2 分支，三头(P3-P5) + EUCB_SC

nc: 5
scales:
  n: [0.33, 0.25, 1024]
  s: [0.33, 0.50, 1024]
  m: [0.67, 0.75, 768]
  l: [1.00, 1.00, 512]
  x: [1.00, 1.25, 512]

backbone:
  - [-1, 1, Conv, [64, 3, 2]]
  - [-1, 1, Conv, [128, 3, 2]]
  - [-1, 3, C2f, [128, True]]
  - [-1, 1, Conv, [256, 3, 2]]
  - [-1, 6, C2f, [256, True]]
  - [-1, 1, Conv, [512, 3, 2]]
  - [-1, 6, C2f, [512, True]]
  - [-1, 1, Conv, [1024, 3, 2]]
  - [-1, 3, C2f, [1024, True]]
  - [-1, 1, SPPF, [1024, 5]]

head:
  - [-1, 1, Conv, [512, 1, 1]]          # 10
  - [6,  1, Conv, [512, 3, 2]]          # 11
  - [[-1, 10], 1, Concat, [1]]          # 12
  - [-1, 2, CSPStage, [512]]            # 13

  - [13, 1, EUCB_SC, []]                # 14: P5->P4
  - [-1, 1, Conv, [256, 1, 1]]          # 15
  - [6,  1, Conv, [256, 1, 1]]          # 16
  - [[15, 16], 1, Concat, [1]]          # 17
  - [-1, 2, CSPStage, [256]]            # 18: F4

  - [18, 1, EUCB_SC, []]                # 19: P4->P3
  - [-1, 1, Conv, [128, 1, 1]]          # 20
  - [4,  1, Conv, [128, 1, 1]]          # 21
  - [[20, 21], 1, Concat, [1]]          # 22
  - [-1, 2, CSPStage, [128]]            # 23: F3

  - [23, 1, Conv, [256, 3, 2]]          # 24: F3->P4
  - [[24, 18], 1, Concat, [1]]          # 25
  - [-1, 2, CSPStage, [256]]            # 26: F4 final
  - [26, 1, Conv, [512, 3, 2]]          # 27: F4->P5
  - [[27, 13], 1, Concat, [1]]          # 28
  - [-1, 2, CSPStage, [512]]            # 29: F5 final

  - [[23, 26, 29], 1, Detect_LSCSBD, [nc, 256]]  # Detect P3,P4,P5
